chapter_07/outputs/dqn/cp0763.pth (torch_old, 6439 bytes, 6 tensors)

fc1.weight f4 [32, 4]
0	0x3e914b83	0.28377923
1	0x3d3f1b57	0.046656933
2	0xbfb108ba	-1.3830788
3	0xbedec6ba	-0.4351099
4	0xbe9e9c96	-0.3097884
5	0x3e7ab9ca	0.24484935
6	0x3fbf6eed	1.4955727
7	0x3ef79d57	0.48362228
8	0x3e42f736	0.19039616
9	0xbe42573d	-0.18978591
10	0xbf93e6fc	-1.1554866
11	0xbe393429	-0.18086304
12	0xbe288598	-0.16457212
13	0xbebba4a2	-0.36649042
14	0xbf272414	-0.65289426
15	0x3e0a11ab	0.13483302
16	0x3e9be79d	0.30450144
17	0xbe16dd90	-0.14732957
18	0xbfc86cf1	-1.5658246
19	0xbe93cc5e	-0.28866857
20	0xbe3e9115	-0.18610032
21	0x3f27adb3	0.6549942
22	0x3e26af23	0.16277747
23	0x3e322bdb	0.17399542
24	0xbe2ff7ed	-0.1718442
25	0x3d4c433a	0.0498688
26	0x3f5c29dd	0.8600138
27	0xbeb936f1	-0.3617473
28	0xbe8b1812	-0.27166802
29	0xbe3fc30c	-0.18726748
30	0xbf53cc17	-0.8273329
31	0x3ef35d45	0.47532097
32	0xbd4a5cea	-0.049405016
33	0xbef7f24e	-0.4842705
34	0xbf9a6cd2	-1.2064459
35	0xbec04023	-0.37548932
36	0xbeb362c2	-0.35036284
37	0x3eb3f274	0.35145915
38	0x3fc105e4	1.5079923
39	0x3eb009b1	0.34382394
40	0xbe188430	-0.14894176
41	0xbe95dd64	-0.2927047
42	0x3efd063c	0.4941882
43	0xbecaddbe	-0.396223
44	0xbeea3195	-0.45740953
45	0xbea2f15b	-0.31824765
46	0x3e0620d2	0.13098457
47	0x3ec142c1	0.37746242
48	0xbe2ca137	-0.16858374
49	0xbd46d75f	-0.048545238
50	0x3ce6e63d	0.028185958
51	0x3f01612f	0.50538915
52	0x3e6af873	0.22946338
53	0xbd0c2c9c	-0.03422223
54	0x3f48e323	0.78471583
55	0xbe07d404	-0.13264471
56	0x3ded01cf	0.115726106
57	0xbeb64375	-0.3559834
58	0xbf4023a4	-0.75054383
59	0xbe5237c6	-0.20529088
60	0x3e6378f1	0.22214104
61	0x3e1cf05d	0.15326066
62	0xbd9af544	-0.07566312
63	0x3e1c0e19	0.15239753
64	0x3eeb4d58	0.45957446
65	0x3c919624	0.017771788
66	0x3ec7cd25	0.390237
67	0x3e1ac81f	0.15115403
68	0x3ef63ca1	0.4809313
69	0x3e5d3e15	0.21605714
70	0xbf94a833	-1.161383
71	0xbe6b1503	-0.22957234
72	0x3dbf37f1	0.09336842
73	0x3ee17bef	0.44039866
74	0x3e7d8d55	0.24760945
75	0x3edbb845	0.42914024
76	0x3e88e844	0.26739705
77	0xbf0a8a7a	-0.5411755
78	0xbed381d9	-0.41310003
79	0xbe3a1d77	-0.18175302
80	0x3d8915a1	0.066935785
81	0x3ea5adb1	0.3235908
82	0xbf1d4978	-0.6144023
83	0xbf19412d	-0.59865075
84	0x3eb7f9af	0.3593268
85	0xbe8aa1da	-0.27076608
86	0xbf97f414	-1.1871362
87	0xbee14b5d	-0.4400281
88	0x3e42cae3	0.19022708
89	0xbe58281b	-0.21109049
90	0x3fd4cbd6	1.6624706
91	0x3ec785a9	0.38969162
92	0x3ed191bc	0.409315
93	0xbe322017	-0.17395054
94	0xbfce9cc3	-1.614159
95	0xbeda19fd	-0.42597952
96	0x3e3b04f9	0.18263616
97	0x3cd7b6c8	0.026332274
98	0xbefb5069	-0.49084786
99	0xbe73cfb4	-0.23809701
100	0x3ed8354f	0.4222817
101	0x3e7ac146	0.2448779
102	0xbf17cb7e	-0.5929488
103	0xbda06704	-0.07832149
104	0xbe6073ea	-0.21919218
105	0xbe0f3a57	-0.13987099
106	0xbf5bd05b	-0.858648
107	0xbde7727d	-0.11301134
108	0xbed4f9c4	-0.41596806
109	0x3dd65980	0.104662895
110	0x3f8a1530	1.0787716
111	0x3e9b4060	0.30322552
112	0xbef510ce	-0.47864383
113	0x3f03dc28	0.51507807
114	0x3f82c8e7	1.021756
115	0xbe917550	-0.28409815
116	0xbf2d9aaf	-0.67814153
117	0x3d22a3e4	0.03970708
118	0x3fd1217b	1.6338342
119	0x3e59ac33	0.21257095
120	0xbdd3a0fd	-0.103334405
121	0x3dea137c	0.114294976
122	0x3f9d83f5	1.2305895
123	0x3e501f9f	0.20324562
124	0xbe94bc94	-0.29050124
125	0xbee8d569	-0.4547532
126	0xbef27ca1	-0.4736071
127	0xbe93e8e3	-0.28888616

fc1.bias f4 [32]
0	0xbe6a5dd3	-0.22887354
1	0xbec6b82f	-0.38812396
2	0xbe66bc52	-0.22532776
3	0x3cf122fe	0.02943563
4	0xbeaf6752	-0.34258515
5	0x3e098868	0.13430941
6	0x3f159091	0.58423716
7	0x3e5c26b5	0.2149914
8	0xbe10bcf1	-0.14134575
9	0xbe8a5b4d	-0.27022782
10	0x3e5bc4a2	0.21461728
11	0x3ed96898	0.4246261
12	0x3f2fe76d	0.687125
13	0x3ef3e979	0.47639063
14	0x3f1a78c2	0.6034051
15	0xbe8ac8d2	-0.2710634
16	0xbf0a7b41	-0.5409432
17	0xbe92e707	-0.28691885
18	0x3f0b1467	0.54328007
19	0x3dfd2d8c	0.12362203
20	0xbdf6d8eb	-0.120530926
21	0xbeaed64a	-0.34147865
22	0xbec94a52	-0.39314514
23	0xbece4b78	-0.40291953
24	0xbda7c648	-0.08192116
25	0x3ee7901e	0.4522714
26	0x3eecdbc0	0.46261406
27	0xbece597a	-0.4030264
28	0x3f027914	0.50966
29	0xbe962078	-0.29321647
30	0xbe741318	-0.23835409
31	0xbd8af027	-0.06784087

fc2.weight f4 [32, 32]
0	0xbe87a563	-0.26493368
1	0xbebbffad	-0.36718503
2	0xbf5456d4	-0.8294499
3	0xbd5728be	-0.05252909
4	0xbec7f76a	-0.3905595
5	0x3e6299df	0.2212901
6	0x3e0c3ed1	0.13695838
7	0x3e427453	0.18989687
8	0xbeaefc93	-0.34177074
9	0xbf6ac612	-0.9170848
10	0x3e90addf	0.28257653
11	0x3d8dfd0b	0.0693303
12	0x3e9f1f3d	0.3107852
13	0x3e536917	0.20645557
14	0xbc9d5104	-0.01920367
15	0xbd088055	-0.033325512
16	0xbe865536	-0.26236886
17	0xbe713cee	-0.23558399
18	0x3e9deedb	0.30846295
19	0xbe09add6	-0.1344522
20	0xbdac1319	-0.0840208
21	0xbedd75f4	-0.43254054
22	0xbdee595a	-0.11638136
23	0xbeaac2f0	-0.3335185
24	0xbdf31b35	-0.11870424
25	0x3e6f5a0b	0.23374192
26	0x3d83cf76	0.064360544
27	0xbe3b78f9	-0.18307866
28	0x3d6706f8	0.05640313
29	0xbec08917	-0.3760459
30	0xbf076020	-0.5288105
31	0xbdabdc08	-0.08391577
32	0xbda21121	-0.07913423
33	0x3e8a3e61	0.27000716
34	0xbd9e3256	-0.077244446
35	0xbd0383bc	-0.032108054
36	0xbe086f9a	-0.13323823
37	0x3d3d147b	0.04616211
38	0xbe8dc98b	-0.27692828
39	0x3c946f60	0.018119514
40	0xbc87cd3a	-0.016577352
41	0x3f2ecdf9	0.6828304
42	0xbe7eed9f	-0.24895333
43	0xbdc0d76b	-0.09416088
44	0xbd711b58	-0.058863968
45	0x3e10d733	0.14144592
46	0xbe11ab5a	-0.14225522
47	0x3eaca6a4	0.33720887
48	0x3ea0814d	0.3134865
49	0xbdc237d7	-0.09483307
50	0x3d6b131e	0.05739128
51	0x3df345c7	0.11878543
52	0xbc4c1c66	-0.012457943
53	0xbd88abcb	-0.06673392
54	0x3e4e3b0d	0.20139714
55	0xbc56f653	-0.013120252
56	0xbe01a723	-0.12661414
57	0xbd550aef	-0.05201238
58	0x3ddf5f1b	0.10906812
59	0x3eaabc4c	0.33346784
60	0xbe3099e1	-0.172462
61	0x3f217dd0	0.630826
62	0x3f5bdda5	0.8588508
63	0xbdb2edc1	-0.08736754
64	0xbc892f9a	-0.016746331
65	0x3e93f607	0.2889864
66	0x3eddab9c	0.4329499
67	0xbe32cff0	-0.17462134
68	0x3e6aa57d	0.22914691
69	0xbe1688a1	-0.14700557
70	0xbdfcb356	-0.12338893
71	0x3ccc2e0e	0.024924304
72	0x3e15d742	0.14632896
73	0x3f66afd8	0.90112066
74	0x3d675942	0.056481607
75	0xbe539c23	-0.2066503
76	0xbc8721b6	-0.016495567
77	0xbe3cc6ba	-0.18435183
78	0xbe635e23	-0.22203879
79	0x3e2192cf	0.1577866
80	0x3e81843d	0.25296202
81	0x3e76eca1	0.24113704
82	0xbe260073	-0.16211109
83	0xbd86dd10	-0.06585133
84	0x3e0af6d2	0.13570717
85	0x3e074b49	0.13212313
86	0x3e858573	0.26078376
87	0x3e17f2b9	0.14838685
88	0x3de717db	0.11283847
89	0xbe4fccb9	-0.20292939
90	0xbe7202a1	-0.23633815
91	0xbd613f86	-0.05499222
92	0x3cf9e933	0.030506706
93	0x3eb75395	0.35805956
94	0x3e9a7e84	0.3017465
95	0x3e2a7249	0.16645159
96	0xbed59b29	-0.4171994
97	0xbdb4c679	-0.08826918
98	0xbf410499	-0.7539764
99	0xbcae8804	-0.021305092
100	0xbef55779	-0.479183
101	0x3e67272a	0.22573534
102	0x3e75753c	0.23970503
103	0x3e89f2bf	0.26943013
104	0xbd2b6090	-0.041840136
105	0xbf4cc100	-0.79981995
106	0x3d8fb2b6	0.07016508
107	0x3e50ce46	0.20391187
108	0x3e9be220	0.30445957
109	0x3e28019a	0.16406861
110	0x3cc91108	0.024544254
111	0xbe6713ac	-0.22566098
112	0xbebd3baa	-0.36959583
113	0xbe08de41	-0.13366033
114	0x3d80a737	0.06281894
115	0xbe212bb9	-0.15739335
116	0x3d189d8c	0.037259623
117	0xbefdf2d7	-0.49599335
118	0xbe347924	-0.17624336
119	0xbeaa0729	-0.33208588
120	0xbe1929dd	-0.14957376
121	0xbc2a1854	-0.010381777
122	0xbdcc128c	-0.09964475
123	0x3d19d0ae	0.037552528
124	0x3e088ebe	0.13335702
125	0xbe107a55	-0.14109166
126	0xbf30a3d9	-0.6900001
127	0xbd59f606	-0.05321314
128	0xbe10d1d3	-0.14142542
129	0xbf008531	-0.50203234
130	0xbf47e862	-0.78088963
131	0x3e0fa815	0.14028962
132	0xbe96a7dd	-0.29424945
133	0x3e0758ce	0.1321747
134	0x3e0631dc	0.13104957
135	0xbcfdc117	-0.030975861
136	0x3d37a07e	0.04483079
137	0xbfaa01c4	-1.3281789
138	0x3e451120	0.19244814
139	0x3d3c64fe	0.04599475
140	0x3ccd54dc	0.025064878
141	0x3e1463cf	0.14491199
142	0x3daf4cdc	0.08559582
143	0xbe1b5792	-0.15170124
144	0xbe51c7c2	-0.20486358
145	0xbe5f275a	-0.21792355
146	0x3e0ba541	0.13637258
147	0x3e1f2fcf	0.15545581
148	0x3d9aac99	0.07552452
149	0xbebb7bcb	-0.36617884
150	0xbf0a4a7e	-0.54019916
151	0xbebe777e	-0.3720054
152	0x3b6afe63	0.0035857193
153	0x3db122d5	0.08649222
154	0x3e519e3d	0.2047052
155	0xbdfc221c	-0.12311193
156	0x3d5491e7	0.051896956
157	0xbf1af904	-0.6053622
158	0xbf628b8f	-0.884942
159	0xbe2ed414	-0.17073089
160	0x3e8fde39	0.2809923
161	0x3e0a4016	0.1350101
162	0x3f45869b	0.77158517
163	0xbdb1a874	-0.08674708
164	0x3f111257	0.5666861
165	0xbd462987	-0.048379447
166	0xbce3bad5	-0.02779905
167	0xbdaaaa84	-0.083333045
168	0x3f04d8e4	0.5189345
169	0x3f0f952b	0.5608699
170	0xbe2cdf95	-0.16882165
171	0xbe9ffefa	-0.3124922
172	0x3db4a3bf	0.088202946
173	0x3d987d19	0.074457355
174	0xbc2b6ba2	-0.010462673
175	0x3e9b8d0a	0.30381042
176	0x3ea9a0bc	0.33130443
177	0x3ea768a1	0.32697013
178	0x3ce11ecf	0.027480511
179	0x3eac193c	0.33613002
180	0x3d059ced	0.03262036
181	0x3ed9f542	0.4256993
182	0x3ea27ffa	0.31738263
183	0x3f0f61d6	0.5600866
184	0x3d9beda4	0.07613686
185	0x3e34beba	0.17650881
186	0x3e691a36	0.22763905
187	0x3d80b18c	0.062838644
188	0xbe92efc0	-0.2869854
189	0x3e660eed	0.22466631
190	0x3edf6810	0.4363408
191	0x3efd6e49	0.49498203
192	0xbe59c392	-0.2126601
193	0xbe0e7800	-0.13912964
194	0xbf1ad1d6	-0.60476434
195	0x3e1cac67	0.15300141
196	0xbec5c3df	-0.38626
197	0x3e6c89a1	0.23099376
198	0x3d6f4bfc	0.058422074
199	0x3e01f7b8	0.12692153
200	0xbe750d6d	-0.23930903
201	0xbf70f24c	-0.94119716
202	0xbb7886e4	-0.0037922198
203	0x3e8dc7a2	0.2769137
204	0x3e834388	0.2563746
205	0x3e942282	0.28932577
206	0x3e843b30	0.25826406
207	0xbe9b4eae	-0.30333465
208	0xbeb30f11	-0.34972432
209	0xbe04936c	-0.12946862
210	0x3d75c5f5	0.06000324
211	0x3dace6dd	0.08442471
212	0xbe3f25a4	-0.18666703
213	0xbee29f6e	-0.4426226
214	0xbea6bd99	-0.32566527
215	0xbee28670	-0.44243193
216	0x3ccc8079	0.024963604
217	0x3e89cbb2	0.2691322
218	0x3e36b688	0.17843068
219	0xbc82f222	-0.015984599
220	0x3e9ce3de	0.306426
221	0xbed75aa9	-0.42061356
222	0xbf107b4a	-0.56438124
223	0x3cc1f62e	0.023676958
224	0xbe01e0ba	-0.12683383
225	0xbd31e60d	-0.043432284
226	0xbf0f0958	-0.5587363
227	0x3e5a975f	0.21346806
228	0xbecde549	-0.40213993
229	0x3e7d15fe	0.2471542
230	0x3e4af627	0.19820462
231	0x3db88e59	0.09011526
232	0xbe544f53	-0.20733385
233	0xbf6ee3d9	-0.9331642
234	0x3bea104e	0.007143057
235	0x3e88c688	0.26713967
236	0x3e905d5f	0.28196236
237	0x3dd03bb1	0.10167635
238	0x3cc30d06	0.023809921
239	0xbc789174	-0.0151713975
240	0xbde98d03	-0.11403849
241	0xbdd0f89f	-0.10203671
242	0x3da48b78	0.08034414
243	0x3e24bd30	0.16087794
244	0x3c89ef3e	0.016837712
245	0xbef2b87b	-0.47406372
246	0xbcf1548e	-0.029459264
247	0xbe52000e	-0.20507833
248	0xbe31c8e9	-0.17361797
249	0x3e719c5b	0.23594801
250	0xbcfcef2d	-0.030875767
251	0xbe0f77a3	-0.14010482
252	0x3e98df66	0.2985794
253	0xbeb63daa	-0.3559392
254	0xbf51dd79	-0.81978565
255	0xbe44d990	-0.19223619

fc2.bias f4 [32]
0	0x3d791862	0.06081427
1	0xbe2a3d92	-0.1662505
2	0xbe28da4d	-0.16489525
3	0x3e932f87	0.28747198
4	0x3ea279f7	0.31733677
5	0xbe3c4497	-0.1838554
6	0x3e2334e5	0.15938146
7	0x3e887ea7	0.26659128
8	0x3e0a1004	0.13482672
9	0x3ea5bbe3	0.3236991
10	0xbd57f6f5	-0.05272575
11	0x3d7787a9	0.06043211
12	0x3e7eb188	0.2487241
13	0xbe0fd9da	-0.14047948
14	0x3e66a7ef	0.22524999
15	0x3dcb2ebf	0.099210255
16	0x3e1434d2	0.14473274
17	0x3ea68be9	0.32528618
18	0x3ea40616	0.32035893
19	0xbe40fd67	-0.18846665
20	0x3d5ae5d0	0.053441823
21	0x3da5c2b5	0.08093778
22	0x3d48ce03	0.049024593
23	0x3e7d3dcc	0.24730605
24	0xbd40b103	-0.04704381
25	0xbe392a41	-0.18082525
26	0x3df6ac5c	0.12044594
27	0xbe0ec0e6	-0.13940772
28	0x3e49d2df	0.19709347
29	0xbe8a65bf	-0.2703075
30	0xbe8f7196	-0.28016347
31	0xbe50cdc3	-0.20390992

fc3.weight f4 [2, 32]
0	0x3ea7f14e	0.32801288
1	0x3e573d3b	0.21019451
2	0xbeadc8d3	-0.3394228
3	0x3e8086d5	0.2510287
4	0x3f1ae23e	0.6050147
5	0xbf113952	-0.5672809
6	0x3e3c4838	0.18386924
7	0x3e57ddd4	0.21080714
8	0xbe5969fc	-0.21231836
9	0x3f2941b2	0.6611587
10	0xbd804d9a	-0.06264801
11	0x3f158e63	0.5842039
12	0x3ee42159	0.44556692
13	0xbe841800	-0.2579956
14	0x3ea62e02	0.32456976
15	0x3eccffe7	0.40038988
16	0x3eb2a877	0.34894153
17	0x3e55b14f	0.20868419
18	0x3ef30252	0.47462708
19	0xbf0a9783	-0.5413744
20	0x3edffc0a	0.43746978
21	0x3e7cb1f7	0.24677263
22	0x3ebbeec7	0.3670561
23	0xbeb928e0	-0.36163998
24	0xbf0d00e2	-0.5507947
25	0xbebfcc61	-0.37460616
26	0x3f1382c5	0.57621413
27	0xbedb190b	-0.42792544
28	0x3d9191c5	0.071078815
29	0xbe9e0243	-0.308611
30	0xbea6ad2e	-0.32554
31	0xbebc2c5a	-0.36752588
32	0x3ee8cf99	0.45470884
33	0xbef9f828	-0.4882214
34	0xbdf20c12	-0.118187085
35	0x3ee97803	0.45599374
36	0x3e97aed4	0.2962557
37	0xbf041bee	-0.5160512
38	0x3e9c8821	0.30572608
39	0x3ea2e018	0.31811595
40	0x3e999076	0.29993027
41	0x3eb5b21c	0.3548745
42	0x3e89430c	0.26808965
43	0x3efcb5ad	0.49357358
44	0xbcf81ed1	-0.030288132
45	0xbf1fe9a2	-0.6246587
46	0x3ec61159	0.3868511
47	0x3dffbf07	0.124876074
48	0x3ebf62cd	0.37380067
49	0x3ec279ab	0.3798345
50	0x3e92903e	0.28625673
51	0xbdafc8c7	-0.08583217
52	0x3ee280ab	0.4423879
53	0x3ecbf12d	0.3983244
54	0x3e8409bf	0.25788686
55	0x3ebc7677	0.36809132
56	0xbee23259	-0.44179037
57	0xbf7104c5	-0.941479
58	0x3e9ec8f5	0.31012693
59	0xbe84a2e5	-0.2590553
60	0x3ed1467b	0.40874085
61	0xbdd83b8f	-0.10558235
62	0xbdb22eeb	-0.08700355
63	0xbef77228	-0.48329282

fc3.bias f4 [2]
0	0xbd275311	-0.040850703
1	0x3e0847de	0.13308665
