chapter_07/outputs/dqn/cp0725.pth (torch_old, 6439 bytes, 6 tensors)

fc1.weight f4 [32, 4]
0	0x3e891940	0.26777077
1	0x3d904723	0.07044818
2	0xbfa83e09	-1.3143932
3	0xbee2219a	-0.4416626
4	0xbeed0eb5	-0.46300283
5	0x3e4671a9	0.19379295
6	0x3fa8fb20	1.3201637
7	0x3eefcb27	0.4683468
8	0x3e26f96c	0.16306084
9	0xbe36186b	-0.17782752
10	0xbf857217	-1.0425442
11	0xbe296484	-0.1654225
12	0xbe7993ba	-0.2437276
13	0xbeb2d70b	-0.3492969
14	0xbf2aabf1	-0.6666861
15	0x3db3f035	0.0878605
16	0x3ea53449	0.32266453
17	0xbd8d3847	-0.068955
18	0xbfb8a17c	-1.4424281
19	0xbe97d9ef	-0.29658458
20	0xbe309104	-0.17242819
21	0x3f267894	0.6502774
22	0x3e19ad0f	0.15007423
23	0x3e2fd5d4	0.17171413
24	0xbe293adb	-0.16526358
25	0x3d9f1d86	0.07769303
26	0x3f631973	0.8871071
27	0xbeb9b19f	-0.36268327
28	0xbe8faada	-0.28060037
29	0xbe49b417	-0.19697605
30	0xbf4cf435	-0.8006013
31	0x3ef25b93	0.4733549
32	0xbd9de12e	-0.07708965
33	0xbef98a50	-0.48738337
34	0xbf906ad8	-1.1282606
35	0xbec3090a	-0.38092834
36	0xbecea7a1	-0.40362266
37	0x3ec745dd	0.3892049
38	0x3fb41971	1.4070264
39	0x3ea0d97f	0.31415936
40	0xbe32f5e7	-0.17476617
41	0xbe74d9f2	-0.23911265
42	0x3f08830b	0.53324956
43	0xbecd728f	-0.40126464
44	0xbee76c68	-0.45199895
45	0xbea68904	-0.3252641
46	0x3dd74997	0.10512083
47	0x3ec01009	0.37512234
48	0xbe24eac4	-0.16105181
49	0xbd465a6e	-0.048426084
50	0x3d0a0133	0.03369255
51	0x3f0219a9	0.50820404
52	0x3e6b4e31	0.22979046
53	0xbcc93b10	-0.024564296
54	0x3f378bbe	0.71697605
55	0xbe06233e	-0.13099381
56	0x3de9c932	0.11415328
57	0xbeba84b8	-0.3642938
58	0xbf33623a	-0.70071757
59	0xbe5f4647	-0.21804152
60	0x3e435dbe	0.19078729
61	0x3e135a1c	0.14389843
62	0xbe04dc3e	-0.1297464
63	0x3e2d5d14	0.16930038
64	0x3ed6c296	0.41945332
65	0xbd0021c5	-0.031282205
66	0x3e8effdd	0.27929583
67	0x3e12e62f	0.1434562
68	0x3efe360e	0.49650615
69	0x3e8652d8	0.2623508
70	0xbf8b8806	-1.0900886
71	0xbe5aeb14	-0.21378738
72	0x3dd516b3	0.1040472
73	0x3ee43fb2	0.44579846
74	0x3e724733	0.23659973
75	0x3ed99a6a	0.4250062
76	0x3e3c694a	0.1839954
77	0xbf04e026	-0.51904523
78	0xbe8b1df1	-0.2717128
79	0xbe45c53e	-0.19313523
80	0x3b7c499a	0.0038496018
81	0x3e9bde41	0.30443004
82	0xbf0593e6	-0.521788
83	0xbf172756	-0.59044397
84	0x3eb2a2da	0.3488987
85	0xbe5ee43f	-0.21766756
86	0xbf84dd3a	-1.0380013
87	0xbedab895	-0.4271895
88	0x3e1d9577	0.15389048
89	0xbe8071c7	-0.25086805
90	0x3fbe5c32	1.4871886
91	0x3eca2b76	0.39486283
92	0x3eda6645	0.4265615
93	0xbdcb5878	-0.099289834
94	0xbfbb4e9b	-1.4633363
95	0xbed4e9b6	-0.41584557
96	0x3e3342bb	0.17505924
97	0x3cc515b6	0.024058204
98	0xbee18716	-0.44048375
99	0xbe665adf	-0.22495602
100	0x3ef1c844	0.47223103
101	0x3e8624de	0.26200002
102	0xbef62197	-0.48072502
103	0xbd4c28f4	-0.049843743
104	0xbeb364c1	-0.35037807
105	0xbe278123	-0.16357855
106	0xbf46bf14	-0.7763531
107	0xbe1cc74b	-0.15310399
108	0xbec13325	-0.37734333
109	0x3dfd93e3	0.12381723
110	0x3f810ce7	1.0082062
111	0x3e9ecab0	0.31014013
112	0xbeeee873	-0.4666172
113	0x3f0a7b38	0.54094267
114	0x3f8353cf	1.0259951
115	0xbe905b6c	-0.2819475
116	0xbf22f8bf	-0.63660806
117	0x3d80beaf	0.0628637
118	0x3fc5d3d9	1.5455276
119	0x3e566bc8	0.20939553
120	0xbde38ea3	-0.1111119
121	0x3e0bf5fe	0.13668057
122	0x3f8fbf56	1.1230266
123	0x3e4d1e93	0.20031194
124	0xbe9d0c57	-0.30673477
125	0xbedb26cf	-0.42803046
126	0xbec1ecd4	-0.37875998
127	0xbe96a494	-0.29422438

fc1.bias f4 [32]
0	0xbe514a66	-0.20438537
1	0xbee1c542	-0.44095808
2	0xbe59492e	-0.21219322
3	0x3d4c18b1	0.049828235
4	0xbeade1b2	-0.33961254
5	0x3e04d25a	0.12970868
6	0x3f0c9916	0.5492109
7	0x3e3eba49	0.1862575
8	0xbd75c745	-0.06000449
9	0xbe83573b	-0.2565249
10	0x3e497416	0.1967319
11	0x3ed6c2c9	0.41945484
12	0x3f2a518f	0.665307
13	0x3eee543c	0.4654864
14	0x3f13a99e	0.5768069
15	0xbe7fa506	-0.24965295
16	0xbf0877b6	-0.53307664
17	0xbe83c359	-0.25734976
18	0x3f05468f	0.5206079
19	0x3de179c2	0.110095516
20	0xbdbf5d9f	-0.09344029
21	0xbebefa2f	-0.3730025
22	0xbedbf27a	-0.42958432
23	0xbee03ca7	-0.43796274
24	0xbd428cc8	-0.04749754
25	0x3ed941ad	0.4243292
26	0x3ed63ef7	0.41844913
27	0xbec6108d	-0.38684502
28	0x3ef666e7	0.48125383
29	0xbea61dd2	-0.32444626
30	0xbe6b1930	-0.22958827
31	0xbd9c4893	-0.0763103

fc2.weight f4 [32, 32]
0	0xbe6bf4d4	-0.23042613
1	0xbec606fe	-0.3867721
2	0xbf2d79d1	-0.67764
3	0xbd680bb6	-0.056651793
4	0xbe92f7f8	-0.2870481
5	0x3e648be8	0.22318995
6	0x3df7c13c	0.120974034
7	0x3e3bf1fd	0.1835403
8	0xbea951b0	-0.33070135
9	0xbf6a23d9	-0.9146095
10	0x3e7b001f	0.24511765
11	0x3d67a0b8	0.056549758
12	0x3e936f57	0.28795883
13	0x3e49cbfe	0.19706723
14	0xbd15b801	-0.036552433
15	0xbcf306e2	-0.029666368
16	0xbe54f297	-0.20795666
17	0xbe547a30	-0.20749736
18	0x3e95bdcd	0.2924637
19	0xbe134e0a	-0.14385238
20	0xbd8005e1	-0.06251121
21	0xbea95cff	-0.33078763
22	0xbe014170	-0.12622619
23	0xbe704f30	-0.23467708
24	0xbdad4083	-0.0845957
25	0x3e6309c3	0.22171693
26	0x3d8095cf	0.06278574
27	0xbe4882bd	-0.19581123
28	0x3d68afde	0.056808345
29	0xbec222df	-0.3791723
30	0xbef45ce2	-0.47727114
31	0xbd9e6982	-0.07734968
32	0xbd877b9f	-0.06615376
33	0x3e381e36	0.17980275
34	0xbd694ae0	-0.056956172
35	0xbd84bce2	-0.06481339
36	0xbdd87658	-0.10569447
37	0x3d33559f	0.043782827
38	0xbe3ed5d1	-0.18636252
39	0x3c27fa52	0.010252552
40	0x3c92c809	0.01791765
41	0x3f11d5c7	0.56966823
42	0xbe1d909c	-0.15387195
43	0xbdce9be5	-0.10088328
44	0xbd6b2f2a	-0.057418026
45	0x3e2ef90b	0.1708719
46	0xbdb8af7b	-0.09017845
47	0x3eacee9c	0.33775795
48	0x3e832960	0.25617504
49	0xbc4fd1af	-0.01268427
50	0x3d8ab732	0.06773223
51	0x3dc4cacb	0.09608992
52	0x3cf68493	0.030092513
53	0xbd1d9356	-0.03847059
54	0x3e078fd0	0.13238454
55	0x3c4b059c	0.012391474
56	0xbda2abd8	-0.07942933
57	0xbbb242b6	-0.0054400815
58	0x3e16be53	0.1472104
59	0x3e298dab	0.16557948
60	0xbdf7f89f	-0.121079676
61	0x3f061f48	0.5239148
62	0x3f3ad98e	0.7298821
63	0xbde89b3f	-0.11357736
64	0xbc04b18e	-0.008098973
65	0x3e999d25	0.30002704
66	0x3ea713bc	0.32632244
67	0xbe25b42f	-0.16182016
68	0x3e2ba1b2	0.167609
69	0xbe0bee66	-0.1366516
70	0xbe071b1f	-0.1319394
71	0x3d1d9287	0.038469817
72	0x3e0c9a15	0.13730653
73	0x3f5c0c8c	0.85956645
74	0x3d47c979	0.048776124
75	0xbe4e3cf1	-0.20140435
76	0xbc1a9278	-0.009434335
77	0xbe540f31	-0.2070892
78	0xbe616f79	-0.2201518
79	0x3dd33264	0.103123456
80	0x3e4604c0	0.1933775
81	0x3e668cbf	0.22514628
82	0xbe271ee6	-0.1632038
83	0xbd640bef	-0.055675443
84	0x3e0896ed	0.13338824
85	0x3d879736	0.06620638
86	0x3e868910	0.26276445
87	0x3dc0dcc3	0.09417107
88	0x3dd14259	0.10217733
89	0xbe4e5850	-0.20150876
90	0xbe750fd2	-0.23931816
91	0x3c9d1049	0.019172804
92	0x3d135f35	0.03597947
93	0x3ea7b72a	0.3275693
94	0x3e82ac79	0.2552221
95	0x3e128766	0.14309463
96	0xbebc431a	-0.36769944
97	0xbdeb3380	-0.11484432
98	0xbf197a06	-0.5995182
99	0xbccd4533	-0.02505741
100	0xbebd9edd	-0.37035266
101	0x3e6d4f78	0.23174846
102	0x3e62fbde	0.22166392
103	0x3e86c604	0.2632295
104	0xbce11283	-0.027474647
105	0xbf5098ee	-0.8148335
106	0x3cde12e1	0.027108612
107	0x3e40b2f5	0.18818267
108	0x3e8e4c58	0.2779262
109	0x3e18082e	0.1484687
110	0x3bddc729	0.0067681265
111	0xbe723797	-0.23654018
112	0xbea6123b	-0.32435784
113	0xbdd1e416	-0.10248582
114	0x3d314b6d	0.043284822
115	0xbe29182a	-0.16513124
116	0x3d89c7c6	0.06727557
117	0xbec7494e	-0.38923115
118	0xbe4531a9	-0.19257225
119	0xbe671835	-0.22567828
120	0xbddb9624	-0.107219964
121	0xbcb6b4fe	-0.0223031
122	0xbdc9c7fd	-0.09852598
123	0x3d1a3cd3	0.037655663
124	0x3e0e524e	0.13898584
125	0xbe225ec5	-0.15856464
126	0xbf25dbaa	-0.64788306
127	0xbd4728f9	-0.04862306
128	0xbe19a8f3	-0.15005855
129	0xbece3e1f	-0.4028177
130	0xbf1c361b	-0.6102006
131	0x3e0c7533	0.13716583
132	0xbe43039c	-0.19044346
133	0x3dd32ed3	0.103116654
134	0x3db7c49e	0.089730486
135	0xbd28dc5f	-0.041225787
136	0x3d6ec173	0.058289956
137	0xbf998f22	-1.1996806
138	0x3e2a3a0b	0.16623704
139	0x3c934b50	0.017980248
140	0xbc3118a7	-0.0108091
141	0x3dfa3521	0.12217165
142	0x3d358e36	0.044325076
143	0xbda5bfa8	-0.08093196
144	0xbdd682d2	-0.10474171
145	0xbe4a8481	-0.19777109
146	0x3de88c42	0.11354877
147	0x3df38e70	0.11892402
148	0x3d8ed0df	0.06973433
149	0xbe877576	-0.26456803
150	0xbef15617	-0.47135994
151	0xbe910046	-0.2832052
152	0x3c5e12ad	0.013554257
153	0x3d85143a	0.064979985
154	0x3e2dd56f	0.1697595
155	0xbdaf2217	-0.08551424
156	0x3c6c1d66	0.014411306
157	0xbf039b9f	-0.51409334
158	0xbf387445	-0.72052413
159	0xbe27c726	-0.16384563
160	0x3e823a85	0.25435272
161	0x3e321fca	0.17394939
162	0x3f0860c1	0.53272635
163	0xbd94e1a6	-0.072696015
164	0x3eeaca07	0.4585726
165	0xbc29d1f4	-0.010364998
166	0xbc972fb0	-0.018455356
167	0xbdaba764	-0.083815366
168	0x3ed081f8	0.40724158
169	0x3f10cc3b	0.5656163
170	0xbe2b39a1	-0.16721202
171	0xbe98c2ea	-0.29836208
172	0x3d5dd72c	0.054160282
173	0x3d453485	0.04814579
174	0xbd9a341f	-0.075294726
175	0x3e8135ea	0.25236446
176	0x3e8d12bd	0.2755336
177	0x3eb21c8d	0.34787408
178	0xbc73b3f1	-0.014874444
179	0x3e76d5d4	0.24105006
180	0x3d4bf2cb	0.049792092
181	0x3ead4692	0.33842903
182	0x3e93e09d	0.28882304
183	0x3ef56c06	0.47933978
184	0x3d8089e9	0.06276304
185	0x3e0c5779	0.13705243
186	0x3e1d4f31	0.1536224
187	0x3e16c0ba	0.14721957
188	0xbe8089f1	-0.2510524
189	0x3e9ba59e	0.30399793
190	0x3ec940de	0.39307302
191	0x3ed46208	0.41481042
192	0xbe53dd85	-0.20689972
193	0xbe2025d9	-0.15639438
194	0xbef3413a	-0.475107
195	0x3e1c80d8	0.15283525
196	0xbea2152c	-0.31656778
197	0x3e60e7c1	0.21963407
198	0x3cc68c0a	0.024236698
199	0x3dfd9261	0.12381435
200	0xbe7517ee	-0.2393491
201	0xbf71cd4b	-0.9445388
202	0xbd8ae2de	-0.06781553
203	0x3e8752bd	0.26430312
204	0x3e6e07b5	0.23245127
205	0x3e897c37	0.2685258
206	0x3e701c55	0.23448308
207	0xbe9cb8de	-0.30609792
208	0xbe95a21b	-0.2922524
209	0xbe0b372e	-0.13595268
210	0x3d2c6637	0.042089667
211	0x3da2ab2c	0.07942805
212	0xbe4d4b20	-0.20048189
213	0xbec34242	-0.38136488
214	0xbeab3e0a	-0.3344577
215	0xbec409ff	-0.38288876
216	0x3cd6ad5d	0.026205713
217	0x3e7b73e5	0.24555929
218	0x3e2e3d5a	0.17015591
219	0xbc19c77d	-0.009385941
220	0x3e93c17e	0.2885856
221	0xbedabb74	-0.4272114
222	0xbf031d11	-0.51216227
223	0x3ce4f1f6	0.027947407
224	0xbdfe7fbd	-0.12426708
225	0xbd6d56df	-0.057944175
226	0xbedb7ce8	-0.42868733
227	0x3e5a30c2	0.21307662
228	0xbeaa2674	-0.33232462
229	0x3e704910	0.23465371
230	0x3e2a0654	0.16603976
231	0x3db21d4a	0.08696993
232	0xbe541ac3	-0.20713334
233	0xbf6de2e7	-0.9292435
234	0xbd57cacc	-0.052683637
235	0x3e82f863	0.2558013
236	0x3e84ea61	0.25960067
237	0x3dabe7ae	0.08393799
238	0x3a702f84	0.0009162354
239	0xbc46e6ec	-0.012140017
240	0xbd5b7bd9	-0.053584907
241	0xbddcca1c	-0.10780737
242	0x3d82d9f9	0.06389231
243	0x3e1f1b5b	0.15537779
244	0x3b191234	0.0023356797
245	0xbed3071c	-0.41216362
246	0xbd11989c	-0.03554593
247	0xbe1567ae	-0.14590332
248	0xbe3121df	-0.17298077
249	0x3e5a0a8c	0.21293086
250	0xbd210ad0	-0.039316952
251	0xbe0ead25	-0.13933237
252	0x3e8f5778	0.2799642
253	0xbeb6a05c	-0.3566922
254	0xbf437b43	-0.7635996
255	0xbe3ea3d9	-0.1861719

fc2.bias f4 [32]
0	0x3d22d59f	0.039754506
1	0xbe0c97b6	-0.13729748
2	0xbe27c2cb	-0.16382901
3	0x3e873880	0.26410294
4	0x3e8d2d27	0.2757351
5	0xbe6976e8	-0.22799265
6	0x3e073ab4	0.13205987
7	0x3e767ab3	0.24070244
8	0x3e02bc90	0.12767243
9	0x3e922f1f	0.28551576
10	0xbd603ca0	-0.054745317
11	0x3cea454c	0.028597496
12	0x3e6879dc	0.22702736
13	0xbdf54cb9	-0.11977524
14	0x3e58006c	0.21093911
15	0x3dce3775	0.10069171
16	0x3de36c27	0.11104613
17	0x3e9b989e	0.30389875
18	0x3e92c040	0.286623
19	0xbe3e6e53	-0.18596773
20	0x3c790815	0.015199681
21	0x3d728c41	0.059215788
22	0x3d17d946	0.037072442
23	0x3e513190	0.20429063
24	0xbd8b0605	-0.067882575
25	0xbe21bc24	-0.15794426
26	0x3da9b4f1	0.08286465
27	0xbe577a20	-0.2104268
28	0x3e2ca237	0.16858755
29	0xbe8c08f3	-0.27350578
30	0xbe92695b	-0.28596005
31	0xbe47aca0	-0.19499445

fc3.weight f4 [2, 32]
0	0x3e9f7a00	0.31147766
1	0x3dd24320	0.10266709
2	0xbeaa18a0	-0.33221912
3	0x3e6ece8e	0.23320982
4	0x3f01a5a9	0.506434
5	0xbeb053d4	-0.34438956
6	0x3e2850b1	0.16437031
7	0x3e47d635	0.19515307
8	0xbd890866	-0.06691055
9	0x3f0e53b2	0.5559646
10	0xbceccba4	-0.028905697
11	0x3efbc6cb	0.49175104
12	0x3eb508ad	0.35358182
13	0xbe9d590c	-0.30732
14	0x3ea1c4b8	0.31595397
15	0x3ec1dbbd	0.3786296
16	0x3e7e038f	0.24806045
17	0x3e449ea4	0.19201142
18	0x3ec928b1	0.39288858
19	0xbec90dc4	-0.39268315
20	0x3ebe8d10	0.37216997
21	0x3e6d52bc	0.23176092
22	0x3eb16a63	0.3465148
23	0xbe9b4bfd	-0.30331412
24	0xbece651a	-0.4031151
25	0xbed507c8	-0.416075
26	0x3ef72e68	0.48277593
27	0xbeb1777c	-0.34661472
28	0x3d8828bd	0.06648395
29	0xbe9c6386	-0.3054468
30	0xbea1434c	-0.31496656
31	0xbeba5290	-0.36391115
32	0x3ed3d0db	0.41370282
33	0xbeb76677	-0.35820362
34	0xbdc6779b	-0.09690782
35	0x3ed2ea9a	0.41194612
36	0x3e89ff2e	0.269525
37	0xbf030193	-0.5117428
38	0x3e8d5f5a	0.2761181
39	0x3e912e8d	0.28355828
40	0x3e00afa9	0.12567009
41	0x3e9b836b	0.303737
42	0x3e70fe4b	0.23534505
43	0x3ee33958	0.44379687
44	0xbc9b8eec	-0.018989049
45	0xbf075938	-0.5287051
46	0x3eb03545	0.3441564
47	0x3dbce35d	0.092230536
48	0x3e9b47c5	0.30328193
49	0x3eab5f0f	0.3347096
50	0x3e8302a3	0.2558795
51	0xbd806698	-0.06269568
52	0x3eca28e3	0.3948432
53	0x3eb6c1c6	0.35694712
54	0x3e644c87	0.22294818
55	0x3ea3f450	0.32022333
56	0xbed841b5	-0.4223763
57	0xbf54bfe7	-0.8310532
58	0x3e925c46	0.28586024
59	0xbe914113	-0.2836996
60	0x3ebbc56a	0.36674052
61	0xbda1e9f9	-0.07905955
62	0xbd6d8ce6	-0.0579957
63	0xbeca2775	-0.39483228

fc3.bias f4 [2]
0	0xbd0398c2	-0.032128103
1	0x3db3647e	0.08759402
